model.pth (torch, 89871 bytes, 8 tensors)

conv1.weight f4 [10, 1, 5, 5]
000000 38 2b 35 3e b3 f4 5f bc 57 4c 25 be 66 4d 2d 3e
       0.17692268 -0.013669181 -0.16142403 0.16924056
000010 dd 07 58 bc 52 63 36 3e 30 60 a8 3d cd 10 15 3d
       -0.0131854685 0.17811325 0.08221471 0.036392976
000020 12 71 20 3c 93 52 55 3e 90 0e d2 3d 4a 04 cb 3d
       0.009792583 0.20832281 0.10256684 0.099129274
000030 3d c1 11 3e 99 2e 11 be 17 73 13 3e 33 25 0b 3e
       0.14233871 -0.14177932 0.14399372 0.13588409
000040 58 93 73 bd d7 1b f7 3d 47 02 32 3e 5c d0 32 3b
       -0.05946669 0.12065857 0.17383681 0.0027284836
000050 39 1f d8 bd 60 1f 70 be 2a 18 02 be e2 dd e2 bd
       -0.1055283 -0.23449469 -0.1270453 -0.11077477
000060 fe 25 b6 bd ef ea 2c be 63 51 3f be 8b 41 71 3e
       -0.08893965 -0.16886495 -0.1868339 0.23560159
000070 a8 9c 92 3d 9f c8 8d 3e 50 33 70 3e 6b 76 de bd
       0.07158786 0.27692124 0.23457074 -0.1086243
000080 9d d2 2a 3e a0 f6 53 3e 91 d5 b6 3e 51 a9 9f 3e
       0.16681905 0.20699549 0.35709813 0.31183866
000090 f1 a3 74 3e 1c ec 9b 3e f7 26 19 3f 6b b9 ec 3e
       0.23890664 0.30453575 0.5982508 0.46235213
0000a0 68 c1 c8 3d 9e 6a 68 3e 8f 95 65 3e 83 5e e0 3e
       0.09802514 0.22696921 0.22420333 0.43822107
0000b0 48 ae 9c bc 95 cc 3d 3e 0f a1 10 3e 2b ad 87 3e
       -0.019126073 0.18535073 0.14123939 0.26499304
0000c0 f9 79 8c bc 57 70 e1 bd b8 63 9a bd e1 e0 e7 bb
       -0.017148005 -0.11007755 -0.07538551 -0.007076368
0000d0 05 d9 36 3d 0a 37 e2 3c 72 99 3f bd b6 bf e5 3d
       0.04464056 0.027614135 -0.046777196 0.112182066
0000e0 cb da 23 be 40 6d 0e 3d ab ae ac bd 28 c1 bd bd
       -0.16001432 0.034772158 -0.08431753 -0.09265357
0000f0 04 74 68 bc ef ed 15 be 25 c6 1d be b1 4e fc bd
       -0.0141878165 -0.14641546 -0.15407617 -0.12319697
000100 66 f9 b8 3c 1e 7c 97 3d 34 ff 31 bd cf 01 3d be
       0.02257986 0.0739672 -0.04345627 -0.18457721
000110 b8 83 9b 3b 49 0a f2 3d 33 2d 13 be ab a7 3e 3e
       0.0047459267 0.11818368 -0.14372711 0.18618648
000120 08 49 ca 3d 75 d2 78 3e 88 ee 59 3e 82 9b 0d be
       0.09877211 0.24299033 0.21282399 -0.13828853
000130 f2 1b b5 bb 10 13 82 3e 0e 5f ba 3d f8 fe ac 3d
       -0.005527013 0.2540517 0.091001615 0.08447069
000140 7a 06 9c 3d dd 14 6c 3d c0 9c c5 3d 76 4d 88 3e
       0.07618423 0.057637084 0.09649038 0.26621598
000150 f3 d9 00 3e f3 14 b3 bd ba 56 8a 3d 6a 1d 92 3e
       0.12583141 -0.0874423 0.06754823 0.28538066
000160 68 7b 81 bd 36 cf e9 bd 3f c1 aa 3b fb aa 14 3e
       -0.06322366 -0.114164755 0.005211025 0.14518349
000170 ff 36 19 3e 44 81 0c be 44 75 ce 3d 1f a7 c8 bc
       0.14962386 -0.13721186 0.100809604 -0.024493752
000180 b0 9f 41 3d 3e 6f 9d bd 76 e8 f4 bd a3 1b 4c 3d
       0.04727143 -0.076872334 -0.11958401 0.049831044
000190 92 50 bd 3d 7c 24 e3 3d bf ab 44 be 9f 27 3c be
       0.09243883 0.11090943 -0.19206141 -0.18374489
0001a0 ca 6f 6e be ef 20 d9 bd 24 98 d6 bd ae 51 63 be
       -0.23284832 -0.10601985 -0.10478237 -0.22199127
0001b0 b4 cf 04 3e 79 0f a4 bd 4d 48 63 bd 81 5a 58 3d
       0.12969857 -0.08010764 -0.055488873 0.052820686
0001c0 45 26 17 be c8 bd 2e 3d e5 11 72 be be c9 5d be
       -0.14760692 0.04266146 -0.23639639 -0.2165899
0001d0 07 83 0e be 20 58 01 be de 29 f0 bd e1 30 1c bd
       -0.1391717 -0.12631273 -0.117267355 -0.038132552
0001e0 f4 c6 19 be fe a8 86 bc fe 98 01 be 4f cc b0 bd
       -0.15017301 -0.016438004 -0.12656018 -0.08632719
0001f0 cc 8f 3c be 60 c5 d2 bc f9 08 13 3e bb 22 07 3e
       -0.18414229 -0.025728881 0.14358892 0.13196842
000200 01 98 a7 3e 19 60 37 3e 61 1f 4a bd 5b 63 53 3c
       0.32733157 0.17907752 -0.04934633 0.012902106
000210 44 9b 29 3d e3 83 68 3e 1b 50 b3 3e 0c f8 2d 3e
       0.04140784 0.22706561 0.35022053 0.16989154
000220 51 32 07 bd 3d 7c 34 be 61 e7 63 3e 12 ec 81 3e
       -0.03300697 -0.17625518 0.22256233 0.2537542
000230 6b cd 78 be bb 0a ac 3c a7 be f9 3d 54 9a bf 3d
       -0.2429711 0.02100121 0.12194567 0.09355608
000240 6b 4d 4b 3e cd cb 06 be 3d f6 3b be 36 6b 4c be
       0.19853751 -0.13163681 -0.18355651 -0.19962773
000250 2e 06 67 3e c7 54 9a 3e e5 50 35 3e b5 1d 63 3e
       0.22560951 0.30142805 0.1770664 0.22179301
000260 af df 03 3e be c6 18 3e 4d 1e 07 be 1e c8 ae 3c
       0.12878297 0.14919564 -0.13195153 0.021335658
000270 68 51 5c bd 14 7d 2e bd 5f d9 f2 bd 2f ac 82 3d
       -0.053788573 -0.042599753 -0.118578665 0.06380498
000280 cf e9 4f 3b af af 1c 3e b4 f9 48 3e e0 3f 98 3e
       0.0031725054 0.15301393 0.19626504 0.29736233
000290 a8 6b 20 bd 9e 52 5b 3d dc e5 08 bd 16 c3 07 3e
       -0.03916517 0.053545587 -0.033422336 0.13258013
0002a0 24 73 76 3d fc 3c 8a 3e 45 6d d5 bd 81 75 2c be
       0.0601684 0.26999652 -0.10421232 -0.16841699
0002b0 92 23 32 be 6f 76 4c be 16 47 ad bd e4 d8 4b 3e
       -0.17396381 -0.19967054 -0.08460824 0.19906956
0002c0 e0 22 93 3e fd fb ac 3d 24 1b 40 be 4f a0 3a be
       0.28737545 0.084465005 -0.18760353 -0.18225215
0002d0 a0 33 a1 bd a2 f0 85 3e 3e dc e9 bc 5d 29 1e be
       -0.07871175 0.2616015 -0.028547402 -0.15445466
0002e0 f7 c0 46 bd 12 00 a1 3d 16 08 a2 3e 47 af 62 bd
       -0.04852387 0.078613415 0.31646794 -0.05534294
0002f0 3b b9 03 bc 89 a8 15 bd 7f 6b 7b 3e b0 48 96 3e
       -0.008039768 -0.03653768 0.24552725 0.2935233
000300 18 6e ea 3d 67 8b 7d 3d 71 72 94 bc 93 1e 1d 3c
       0.1144678 0.061900523 -0.018120976 0.009589809
000310 07 d1 34 3e a1 5b a6 bd 08 73 6a 3e 1d 7a df bc
       0.17657863 -0.081229456 0.22895443 -0.027279908
000320 43 36 26 bd b1 7b f1 3c 30 48 b2 3d ad dc 00 be
       -0.04057909 0.029477926 0.08705175 -0.12584181
000330 e0 89 d0 bd 7e fd 25 be 97 e7 2d 3e fc 89 a5 bd
       -0.101825476 -0.16209981 0.16982876 -0.08082959
000340 7b aa fc 3d 78 cd fb bd 51 39 52 3e a9 e0 20 be
       0.12337204 -0.122950494 0.20529677 -0.15710701
000350 8f 95 0f 3c 23 0f 10 be f3 e0 5b 3c 88 d7 25 3e
       0.008763685 -0.14068274 0.013420331 0.161955
000360 67 21 37 3e 8e b2 5d 3e 80 b7 37 3d a7 40 b5 bd
       0.17883836 0.21650144 0.044852734 -0.08850222
000370 09 34 00 3c 07 b3 12 be e4 4e 97 bc f5 09 64 3e
       0.007824906 -0.14326106 -0.018470235 0.22269423
000380 26 80 0b 3d c6 52 d6 bd b0 9c 23 be 73 74 5c be
       0.03405776 -0.104650065 -0.1597774 -0.21528797
000390 e4 3d 3f 3e db d0 b5 bd 25 25 a4 bc bf bf 42 be
       0.18675953 -0.08877727 -0.020037243 -0.19018458
0003a0 4f 21 3d 3c 43 9e d7 3b 90 36 c6 3d c3 c6 d7 bc
       0.011543586 0.0065801456 0.09678376 -0.026339894
0003b0 ed b7 f3 3d 48 53 d9 3a c7 61 3f bd 09 34 3e be
       0.119003154 0.0016580606 -0.046724107 -0.18574537
0003c0 54 0f 03 bd de 92 32 3e 1d cd c3 bd 4d e8 3d be
       -0.03199704 0.17438838 -0.09560607 -0.18545647
0003d0 47 f1 34 be 60 75 98 ba 52 62 0f 3e e7 13 e4 3d
       -0.17670165 -0.001163166 0.1400235 0.111366086
0003e0 95 90 42 3d bd 8b 38 be
       0.047501165 -0.18022056

conv1.bias f4 [10]
000000 60 58 1a 3e 7d 80 f7 b7 49 64 bb bd 44 76 ff 3c
       0.15072775 -2.9504527e-05 -0.09149987 0.031184323
000010 64 16 10 3d 97 b0 5e 3e c6 4a 1c 3e 9b d5 3d 3e
       0.035177603 0.21747051 0.15262899 0.18538515
000020 3a 56 16 bd 9c 2e 5d 3e
       -0.036703326 0.21599811

conv2.weight f4 [20, 10, 5, 5]
000000 d0 52 89 bd 17 4f 27 bd 65 09 30 3c 72 b5 30 bd
       -0.06705248 -0.04084691 0.010744427 -0.04314179
000010 78 22 9b bc 68 6d ee bc fd ab db bb c6 0c 27 bd
       -0.018937334 -0.029104903 -0.006703852 -0.040783666
000020 85 e0 86 bd 4c db d0 bc 1e a0 20 bd 1a c5 b7 3c
       -0.065857925 -0.025495194 -0.0392152 0.022432853
000030 c3 0f 2f 3d f2 bc db 3c cf ae 8a bd 31 10 2d bd
       0.04273964 0.026823495 -0.06771623 -0.04225177
000040 fc df fc bb dd 5c 7a 3d 77 6e 7e 3d 7c 6c 8d 3b
       -0.0077171307 0.061123718 0.062117066 0.004315911
000050 ae 2a 41 bd b6 7c 00 bd 5b 47 ff 3c 8a e2 66 3d
       -0.047159843 -0.031368934 0.031161955 0.05636839
000060 41 d9 55 bd db f9 95 bd f6 87 30 bd d2 37 92 bd
       -0.052209143 -0.07323047 -0.043098412 -0.07139553
000070 24 8b 5b 3d 2a be 0f bd 6a 85 36 bc 4f 6d 9e 3c
       0.05359949 -0.035093464 -0.011140207 0.019339232
000080 77 7e 9a bc e1 e0 7f bd 90 af be bd fe 99 b2 3d
       -0.018859131 -0.06247032 -0.0931083 0.08720778
000090 7c 5e 8b bc 37 1d f1 bc 43 5a a5 bd 30 5b 93 3c
       -0.017012827 -0.029432876 -0.08073857 0.017987818
0000a0 62 d3 4a bd 94 b4 11 bc 52 d8 88 3d c5 be 8b 3d
       -0.049517997 -0.008893151 0.06681885 0.06823496
0000b0 38 e7 17 3d de 46 79 3d 14 1e e1 3d 7a b8 7e 3d
       0.03708574 0.0608586 0.10992065 0.06218765
0000c0 96 c9 90 3d fa bf 4d bc 75 39 01 bd 79 72 6b 3d
       0.070696995 -0.012557978 -0.031548936 0.057482217
0000d0 1b a9 45 bc 58 e0 bb bc be 57 42 bd 20 92 23 3d
       -0.012064244 -0.022934124 -0.04744696 0.039934278
0000e0 82 18 2d 3d 90 bd 37 bd 0f ac 70 3b c5 dc e8 bc
       0.0422597 -0.044858515 0.0036723649 -0.028425584
0000f0 9a db 58 bd 0f 53 aa 3c 5c 9c be 3b da ea 16 3d
       -0.052943803 0.020791559 0.0058169793 0.036845066
000100 8d 39 52 3c e4 db 8c bb 42 88 0b bd 7f 0d 96 bc
       0.012831104 -0.004298674 -0.034065492 -0.018316982
000110 a3 92 f2 bb 6d 94 1e bd 24 f7 85 3d 5b ac d4 3a
       -0.0074027344 -0.03871577 0.06541279 0.0016225682
000120 c6 ac 07 3d ef 59 f0 bc 38 ab 8b bd 93 82 64 bd
       0.033123754 -0.029339759 -0.06819767 -0.055788588
000130 15 00 79 bc 3d af 3c bd 8c 84 10 3d 35 45 72 bc
       -0.015197773 -0.046065558 0.035282657 -0.014787008
000140 9e 75 5f bd 7d a3 ce 3c 3c 9d 78 bd f8 50 64 bd
       -0.054555528 0.025224442 -0.060696825 -0.05574128
000150 53 cb 40 3d 71 2d 56 3d d2 2b 31 3d 98 91 f0 bb
       0.047068905 0.05228943 0.04325468 -0.007341575
000160 c0 bf 91 bd 1b 20 1b 3c 97 79 44 ba ab 8e 6c 3d
       -0.071166515 0.009468104 -0.0007494925 0.057753246
000170 4c fa e8 bb 6c d0 cf 3c 7d 84 56 3c 86 f6 79 3d
       -0.007109916 0.025367938 0.013093111 0.06102612
000180 47 8d 9b 3d a8 72 4a bb 62 e4 c2 3c fc 19 49 3d
       0.07595306 -0.0030891094 0.023790542 0.049097046
000190 a7 6b 56 3d 3a 76 45 3d c0 e9 22 3d 16 6f 17 3b
       0.05234876 0.048208453 0.039773703 0.0023106984
0001a0 96 e8 42 3d 5a ee ae bc 19 aa bc 3b 18 98 2c bd
       0.047585092 -0.02135389 0.005757582 -0.042137235
0001b0 e0 6a ed bc 57 89 a0 3c e2 bb 16 bc b1 d9 01 3d
       -0.028981626 0.019596739 -0.009200068 0.031701747
0001c0 b2 29 30 3d 24 ba 94 3b cd 80 52 bd 61 d5 47 bc
       0.043008514 0.0045387913 -0.051392365 -0.01219687
0001d0 f1 ea a0 3a 9a 94 ff bc a8 70 55 bc 3d e4 0a 3d
       0.0012277049 -0.031198788 -0.013027348 0.03390907
0001e0 d3 4a 07 bd 1a 4b 28 3c a3 a1 72 bd 39 4b 8f bc
       -0.033030342 0.010271812 -0.05923618 -0.017491924
0001f0 cf e6 1d 3c 77 40 2f bd 65 71 02 bd 98 44 09 3d
       0.009637549 -0.042786088 -0.031846423 0.03351268
000200 c2 a3 63 bc 31 e5 40 3d f2 a4 0c 3d d9 5f 69 bd
       -0.013894023 0.047093574 0.03433699 -0.056976173
000210 d9 25 19 bd 1a a4 79 3d 44 b5 e1 3c ad d3 88 3c
       -0.03738961 0.060947515 0.027552254 0.016702497
000220 6d 86 5c 3c 07 96 7c bd ae b5 41 3d 2f eb 23 3d
       0.013459784 -0.061666515 0.047292404 0.04001921
000230 a9 56 02 bd 05 6c 05 bc e9 8b 92 bc 04 23 44 bd
       -0.031820927 -0.00814343 -0.01788898 -0.047884956
000240 d3 29 b0 bc 63 b2 8b bc aa 0b 14 3d 08 50 34 3d
       -0.021504318 -0.017052835 0.036143936 0.044021636
000250 cb 73 c5 3c 44 54 48 3c a2 5b 90 bd 2a 89 94 bc
       0.024103066 0.012227122 -0.070487276 -0.018131811
000260 f8 81 1c 3d 09 1c 47 bd a2 3d 1c 3d 50 7e ab 3c
       0.038209885 -0.04861072 0.038144715 0.020934254
000270 3e 27 f9 3a c8 e7 11 ba 3c 69 3b 3d 78 7a 82 bb
       0.0019008887 -0.0005565849 0.045754656 -0.0039818846
000280 74 b1 ae bc 41 1f 84 bc 69 2a 33 bd de 59 4d bd
       -0.02132485 -0.016128184 -0.043741617 -0.050134532
000290 94 54 73 bd 35 55 0f 3d dd e2 37 3c da 3a 3b 3d
       -0.05940683 0.03499337 0.011223522 0.045710422
0002a0 c2 29 b9 bc 12 bc 35 3d ca 6d 0a bd 8d 3a aa 3c
       -0.02260292 0.04436881 -0.03379611 0.020779872
0002b0 e6 2b 37 3d 05 f7 48 bc a7 f4 1a bd ef 56 7e bd
       0.0447196 -0.012265925 -0.037830975 -0.062094625
0002c0 9f a6 0c bd b8 58 26 bd 6a 21 8e bd 43 ab 8d 3b
       -0.03433859 -0.040611953 -0.06939967 0.0043233945
0002d0 2c 07 87 3d 12 7c 31 3d a8 f8 24 3d 26 12 c9 bc
       0.06593165 0.043331213 0.0402762 -0.024544787
0002e0 2d 88 94 bd 7c 06 91 3d 71 8b 8f 3c ae 96 52 3d
       -0.07252536 0.07081315 0.017522546 0.05141323
0002f0 a5 c4 2e 3d 1a 5b 48 3d c7 f2 60 bc 90 70 85 3d
       0.042668004 0.048915006 -0.013729758 0.0651561
000300 3b e2 44 3b cd 9d c4 bc e0 95 de bb d2 d2 d8 3b
       0.003004207 -0.024001027 -0.006792769 0.0066169286
000310 3e 7f 13 3d 7e 18 2f 3d e5 a3 05 bd c5 77 77 bd
       0.03601002 0.042747967 -0.032627005 -0.060416956
000320 79 ca 6d b8 b3 be f7 3c 19 45 b2 bc 8a 2e 14 bd
       -5.669377e-05 0.0302423 -0.021761464 -0.036177196
000330 3e 81 80 bc f2 a2 50 3d d7 07 ac ba 4b 71 1a bc
       -0.015686627 0.050936647 -0.0013124895 -0.009426425
000340 81 43 c6 bc dd 8f f0 bb 5a c1 23 bd 2e 41 00 3d
       -0.02420211 -0.0073413686 -0.039979316 0.03131216
000350 d9 fe 12 3d 21 5e 22 bc 9d 8d 4b 3c fe a0 a3 bc
       0.035887573 -0.009910137 0.0124239 -0.019974228
000360 1e 67 0f bc 14 53 be ba 00 51 cb 3c cd 02 13 3d
       -0.008752612 -0.0014520609 0.024818897 0.035891343
000370 88 38 83 3d 2a 75 04 bd 12 51 49 3d 93 08 9a bc
       0.06407267 -0.0323383 0.04914958 -0.018802917
000380 f6 50 88 bd ff 89 0a 3c 87 3c 14 bd c9 02 eb 3c
       -0.06656067 0.008455752 -0.036190536 0.028687852
000390 48 b2 45 3d 84 9f f4 bb 90 3f 55 bc 7e e9 13 bd
       0.048265725 -0.007465305 -0.013015643 -0.036111347
0003a0 65 40 7f bc 7d 5f d2 bc 6f ab ca bc cb 6b 52 bc
       -0.015579318 -0.025680298 -0.024739949 -0.012843083
0003b0 cf 3e ed bc fd 2c 78 bb aa 0f 43 bb 63 99 d7 bc
       -0.028960614 -0.0037868612 -0.0029763975 -0.026318258
0003c0 9b 72 19 bd 10 d8 17 bd e3 ab 24 3d 8a a4 cd 3c
       -0.037462812 -0.037071288 0.040202986 0.025102872
0003d0 63 0d 97 3b f5 b2 27 b8 52 32 5f bd d3 bb 15 bd
       0.00460975 -3.998257e-05 -0.05449135 -0.036556076
0003e0 e7 52 01 bd d3 fd 4b 3d 3b 26 8f 3d ca 1a 11 3d
       -0.031573202 0.049802613 0.06989714 0.03542594
0003f0 40 11 ba 3c 12 4a e4 bc 01 30 1c 3d 1c 0a 1b 3d
       0.022713304 -0.02786735 0.038131718 0.037851438

conv2.bias f4 [20]
000000 db 35 0d 3d c8 e4 81 bd 25 fb 23 3d 82 5a 29 3d
       0.03447519 -0.06342465 0.040034432 0.04134608
000010 d0 3c 14 bd 0f 8d 1e bd fc 5f 8b 3a d5 73 57 3d
       -0.036190808 -0.038708743 0.0010633464 0.0526007
000020 9a 96 c7 bc a9 25 d9 bc 94 b2 b7 3c 53 3b 4b bc
       -0.024363805 -0.026507216 0.02242402 -0.012404281
000030 c6 a5 91 bc 2d 9a d9 bc 0b 23 00 bc f3 6b 77 bd
       -0.017779242 -0.026562775 -0.007820855 -0.060405683
000040 4e 02 f7 3b c4 ad 23 bd 85 7b 3a bd 09 e5 89 3d
       0.0075381165 -0.039960638 -0.045527954 0.06733138

fc1.weight f4 [50, 320]
000000 d2 c9 1e bd ec 88 f8 3c b0 ec 24 bd 34 44 48 3d
       -0.03876669 0.030338727 -0.040264785 0.04889317
000010 50 d5 b6 b9 89 61 18 bd cd fc eb bc a7 74 1a 3d
       -0.00034872675 -0.03720239 -0.028807068 0.037708905
000020 06 26 50 bc 86 b0 ba bb 07 2c 7a bc 23 26 97 3c
       -0.012704378 -0.0056973128 -0.015269286 0.018450802
000030 66 d3 84 3d 65 51 a8 3b 4d 0f 4e 3c e2 54 af bb
       0.064856336 0.005136656 0.01257689 -0.005350695
000040 a0 22 07 3d b7 70 17 bd 14 11 6f 3d 0d 6e 07 bd
       0.032992005 -0.036972728 0.058365896 -0.033063937
000050 91 53 8d 3b 62 e8 4a bd 2c c1 da 3c 04 e4 19 39
       0.0043129404 -0.049538024 0.02670344 0.0001467616
000060 8c c7 85 bd 04 c4 68 3d 53 07 c7 bc af 53 6d bb
       -0.06532201 0.05682756 -0.024295485 -0.003621321
000070 e2 24 12 bd 2c 2c 34 bc 41 ac 11 3d 26 e9 8a 3d
       -0.035679705 -0.0109968595 0.035564665 0.06782751
000080 80 aa e0 bb be bf 55 3c da f3 94 3b 5e 47 f1 3b
       -0.0068562627 0.013046203 0.004545671 0.007363244
000090 24 e6 f4 bc 9c 57 4a 3c 18 5e 8b 3d e3 78 a6 3b
       -0.029894896 0.012349989 0.06805056 0.005080329
0000a0 5a e2 b8 bc 27 da 89 bb 0c 62 0d bd 1e 87 e0 bc
       -0.02256887 -0.004206914 -0.034517333 -0.027408179
0000b0 4c 8b 83 bd 60 2a 25 3d d4 9f a1 bc f8 dc 5b 3d
       -0.06423053 0.040323615 -0.019729532 0.05367753
0000c0 92 0f ce bc ad ab 83 3c fd ec a9 3c a0 94 32 bd
       -0.025153909 0.016073072 0.020742888 -0.04359877
0000d0 c0 9b 73 3d bc 9b aa 3c 08 b0 e0 3c b9 86 41 bc
       0.059474707 0.020826213 0.027427688 -0.011811906
0000e0 ba 6a 32 3d 42 4f 4d bd 25 aa 48 bd 3e f3 16 3d
       0.043558814 -0.050124414 -0.048990387 0.036853068
0000f0 e8 a5 ad 3a 94 35 0f bc 39 4f 57 bc 73 57 ad bc
       0.0013248296 -0.008740801 -0.013141447 -0.021159863
000100 bc 29 88 3c 8b db bb 3d a2 48 24 3d c5 9d 8b bc
       0.016621463 0.09172734 0.04010833 -0.017043004
000110 06 ef 7c bd df a0 2e 3d b8 05 8a bb 81 32 58 bd
       -0.061751388 0.042633887 -0.0042121075 -0.05278254
000120 21 db 30 3d 43 e6 b1 bc f5 03 9e bc aa 4a 27 bd
       0.043177728 -0.021716243 -0.019288996 -0.04084269
000130 12 87 d1 bc 1a 1b 13 bd cb 42 b3 3c 05 ae 08 3c
       -0.025577102 -0.035914518 0.021882435 0.008342271
000140 6a 3a 10 3d a4 63 42 bd dc e6 c0 3c 79 e7 d2 3c
       0.035211958 -0.047458306 0.023547582 0.02574514
000150 56 67 2c 3c 6d 82 0d bc 11 2f 47 bd b2 c2 2c 3d
       0.010522684 -0.008637053 -0.04862887 0.042177863
000160 7e 16 ef 3c 4a f5 1d 3d 5e d7 2a bd a5 2c 3a bd
       0.02918553 0.038564004 -0.041709296 -0.045452733
000170 93 bb 0b 3d dd 72 44 3d 34 06 09 3d d8 4e 17 bd
       0.03411443 0.047961105 0.03345318 -0.036940426
000180 10 42 8f bd bf 6f 4b bd 36 67 11 3d 47 66 36 3d
       -0.06995022 -0.049667116 0.03549882 0.044531133
000190 62 d4 8d bd 3d 71 f2 3c 26 a1 60 3d 27 2e 1d 3d
       -0.069252744 0.029595012 0.054841183 0.038374092
0001a0 ca 48 8d bb 31 e8 08 bd 2e 9c 46 bd 02 6e 7d bc
       -0.0043116556 -0.03342456 -0.04848879 -0.015468122
0001b0 78 a4 33 bd 1b 81 24 bd d3 c1 ce bc 76 d1 2f bc
       -0.04385802 -0.040162187 -0.025238907 -0.010731092
0001c0 be 69 a8 3c 64 06 fe 3a 59 06 6b 3c f4 42 a8 bd
       0.020558234 0.0019380567 0.014344775 -0.08215895
0001d0 20 9d e5 bc 4b 73 9d bd 22 d9 0c 3d bc 16 7c bc
       -0.028029025 -0.07688006 0.03438676 -0.01538628
0001e0 ba 57 99 bd c6 d7 7c 3d e3 99 9d 3d be f3 63 bd
       -0.07487436 0.061729215 0.07695367 -0.055652373
0001f0 90 04 8e 3d d8 07 88 bc 61 f2 ab bc 97 93 f6 3c
       0.06934464 -0.016605303 -0.020989599 0.030099673
000200 9d 02 84 3d 08 b6 e7 3b fc 24 ee bc 78 aa 57 bd
       0.06445811 0.0070712604 -0.02907037 -0.052652806
000210 bb 43 8b 3d e1 db 3b 3c f1 00 64 bc e0 9b a6 bc
       0.06800028 0.011465997 -0.01391624 -0.020337999
000220 60 38 4b bd 5b 29 ab bc 1d a0 99 3c d3 78 2e bd
       -0.04961431 -0.020893743 0.018753106 -0.042595696
000230 ca e7 8b bb bd 8f 2e 3d bb 3f 88 bc 9b b0 c2 3c
       -0.004269575 0.04261755 -0.016631952 0.023765853
000240 74 b9 89 bc f9 9a 81 bd 35 eb 47 bc 15 72 2f bd
       -0.016812064 -0.06328387 -0.012202074 -0.042833406
000250 c7 d4 09 3d f3 8b a1 bc c7 b8 4f 3d 24 98 06 bc
       0.033650186 -0.019720053 0.050713327 -0.008214984
000260 9d 4d c9 3c 76 3f 84 3d 96 dc f7 3c 5a ae 55 3d
       0.024573142 0.06457417 0.03025655 0.052168228
000270 d1 26 7a 3b d3 ee af bc b0 b2 c6 3c eb dc 86 3d
       0.003817011 -0.021476185 0.024255127 0.065851055
000280 ef 9d f9 bc a5 82 10 3d a2 2f 2b 3d 54 12 09 3c
       -0.030470816 0.035280842 0.041793473 0.008366186
000290 e7 cb a7 3d dc ec 4e bc 3c b7 3e bd 06 46 98 3c
       0.08193188 -0.012629714 -0.046561465 0.018588077
0002a0 70 fc 36 3c 8e 82 3a bc 3d 4f 7d 39 c2 2b b5 3c
       0.011168584 -0.011383666 0.00024157479 0.022115592
0002b0 76 8a 29 3d 9e 7b f6 bc 5e 3c 69 3c 85 ff 67 bd
       0.041391812 -0.030088242 0.014235584 -0.056640167
0002c0 ec e0 e2 bb 14 af 19 bd 37 4a f1 3c 84 39 1e 3d
       -0.0069237854 -0.037520483 0.029454334 0.03862907
0002d0 2d e5 39 bd 7c 3e d5 bb 36 d6 7a ba 60 42 2f bd
       -0.045384575 -0.006507693 -0.0009568663 -0.04278791
0002e0 fa 63 e5 bc b6 f1 9d bc 02 79 45 bb 1c e1 3a 3d
       -0.028001774 -0.019280296 -0.003013194 0.045624837
0002f0 df d8 52 3c 3a c8 35 bd 39 a7 4d 3d 5f 29 b3 3c
       0.012869089 -0.044380404 0.050208304 0.021870313
000300 dd fd 3c 3d 2d 8e f5 3c e0 50 12 3d f1 91 fc 3b
       0.04614054 0.029975021 0.03572166 0.0077078273
000310 9d c1 04 bd 54 99 38 bd 78 f4 14 3c cc d7 5d bc
       -0.032411207 -0.0450681 0.009091489 -0.0135402195
000320 cb 2f f0 3c 94 4d b0 bc 2f d8 4c 3d c0 98 0e 3d
       0.029319664 -0.021521367 0.050010856 0.034813643
000330 45 0d 12 3d 39 14 0f bd 80 e0 28 bd 4c f1 c8 bc
       0.035657186 -0.034931395 -0.041229725 -0.024529122
000340 0c ff e7 bd aa e2 87 bc f6 da 10 3d b6 c6 2a 3d
       -0.11327943 -0.016587574 0.035365067 0.04169341
000350 7a 9f 44 bc a1 43 fd 3b 7f 8d 4b 3c 1b 93 af bc
       -0.012000913 0.0077290093 0.012423872 -0.02143245
000360 14 a4 35 bd fd 0b bb 3b 40 e7 12 3d 8d 54 ad 3d
       -0.04434593 0.005708216 0.03586507 0.084633924
000370 cc dd e2 bc 09 46 0e ba 82 cc bf 3c 2c d8 38 bd
       -0.027693652 -0.0005427306 0.023412947 -0.045128033
000380 84 bf 14 3d 5d ee 5c 3d da d0 04 3d 15 d1 fc 3c
       0.036315456 0.05393826 0.03242574 0.030861417
000390 6c 00 a5 bd 2b 06 b8 bc ac 74 83 bb 48 f8 d7 bc
       -0.08056721 -0.022463879 -0.004011711 -0.026363507
0003a0 cf 39 ce bc 27 48 9e 3c 4e b0 8d 3c d1 92 91 3c
       -0.02517405 0.019321514 0.017295983 0.017770203
0003b0 f0 85 3a bb 6e f9 d3 3c 5b e3 ea bc 62 47 4d ba
       -0.002846118 0.025875773 -0.028672865 -0.0007830766
0003c0 90 3f 4f bd f6 1d 62 bb 17 96 79 3d 4e 6e e3 3c
       -0.050597727 -0.0034502721 0.060934152 0.027762558
0003d0 05 5b 62 bd 8c 2d 7c bd 6d d3 a1 b9 13 78 1b 3d
       -0.055262584 -0.061566874 -0.00030865837 0.03795631
0003e0 ac 25 84 bc 04 b1 55 bb 95 b5 00 bd 44 67 14 3b
       -0.016131245 -0.003260673 -0.03142317 0.002264456
0003f0 c2 5a d7 bb 3b fc 53 bd f0 c6 92 bd 6a a6 34 bb
       -0.0065720985 -0.051754218 -0.071668506 -0.002756501

fc1.bias f4 [50]
000000 7f 4a 0d 3d c5 14 68 bc 03 1a 97 bb 5c 24 b4 bb
       0.034494873 -0.014165108 -0.004611255 -0.0054974984
000010 40 c1 69 3c de 39 5c bd 90 c2 f0 bc f1 97 cd bc
       0.014267266 -0.053766124 -0.02938965 -0.025096865
000020 6e 78 3b 3d 1e 1a 48 bd 29 93 77 3c af b0 db bc
       0.045769148 -0.048853032 0.015110769 -0.026817648
000030 75 16 da 3a d3 55 08 3d ba 32 c8 3c 8e 79 f4 bc
       0.0016638773 0.033284973 0.02443825 -0.029843118
000040 6f 8f 2e bb dc ee 17 bd c1 42 14 bd 0d 36 4e 3d
       -0.0026635786 -0.03709303 -0.036196474 0.050344516
000050 4a 6f 2e 3b 28 f8 26 bd df 80 89 bc a4 df 01 3d
       0.0026616626 -0.040764004 -0.016785083 0.03170742
000060 37 c5 df bb 8e 05 4d 3d d3 6f f7 3c 1b 8c f2 bc
       -0.0068289298 0.050054125 0.03020469 -0.029607823
000070 32 97 9a 3d 81 b3 33 3d 52 6c db 3c 51 d7 31 3d
       0.075483695 0.04387236 0.02678505 0.043418232
000080 8d e1 15 3c b8 a3 12 3d 16 3c 24 3d a4 e3 d4 3a
       0.009148014 0.035800666 0.040096365 0.0016242159
000090 fc 87 2f 3d 56 d8 5a 3d 32 4f 5b bd df 1a 45 3d
       0.042854294 0.05342897 -0.053542323 0.04812133
0000a0 b0 1c 38 bc 42 ac 56 3d 66 54 10 3d d1 c1 44 3c
       -0.011237308 0.05241037 0.03523674 0.0120091
0000b0 3f 40 a5 bc 83 52 fc 3c d9 cb 2b bd 7a 67 fb bc
       -0.020172236 0.030801063 -0.04194245 -0.03068899
0000c0 63 5f 5f b9 62 7c 82 3d
       -0.00021302472 0.063713804

fc2.weight f4 [10, 50]
000000 c6 eb 03 be b8 8e 93 bc e7 1f 46 3e 97 03 24 bc
       -0.12882909 -0.01801239 0.19348107 -0.0100106215
000010 e9 af 03 3e 9d 2f 95 bd a5 88 e4 3c 2f 31 ff bd
       0.12860073 -0.07284472 0.027897188 -0.12460553
000020 c8 dc ce bd 6f 99 bd bd 02 c9 d2 3d c6 58 ff bd
       -0.101007044 -0.09257781 0.102922454 -0.12468104
000030 df da 97 3b 69 d6 5d be b7 52 60 be a9 1f b7 3d
       0.0046342458 -0.21663822 -0.21906553 0.089415856
000040 49 a6 1c 3e 41 67 d3 bd 4e 17 2c 3e 80 a5 72 3b
       0.15297808 -0.103224285 0.16805765 0.0037024915
000050 33 fb fc bd c3 14 d4 3a 87 41 54 3c 88 c5 1c bd
       -0.123526 0.0016180504 0.012955076 -0.038274318
000060 4f 85 17 3e 81 24 08 be 69 67 ae 3d f7 fc 56 be
       0.14796947 -0.13295175 0.08515818 -0.20994936
000070 6f dd 25 be bf 77 ec 3d e9 bc 75 3d 89 94 0d be
       -0.16197751 0.11546277 0.059994612 -0.13826193
000080 1d 70 cd bd 40 01 9a 3d 6a f1 1a be 5b 61 f3 3d
       -0.100311495 0.0751977 -0.15131155 0.118838035
000090 9c c8 ca bd e0 f9 2c be 33 72 da 3c 2f 48 41 3e
       -0.099015445 -0.16892195 0.026665783 0.18875192
0000a0 97 98 fe 3d c6 44 ca bd 98 ac 54 be 84 58 c1 3d
       0.12431448 -0.09876399 -0.20768964 0.09440711
0000b0 12 34 b1 3d 2f ce de 3d c5 87 f7 3c 4a 28 59 be
       0.0865251 0.1087917 0.030216107 -0.21206775
0000c0 11 36 1c be 1b f0 40 3d 9b c2 e2 3d 23 fe a1 bd
       -0.15255 0.047103982 0.11072274 -0.07909801
0000d0 ad a5 4a be 66 79 a8 3d 72 ba 16 be 4b 4a 26 be
       -0.19789763 0.0822628 -0.1471956 -0.16239278
0000e0 a2 d4 26 be 1b 32 ee bd 80 0f 3f be 93 58 af bd
       -0.1629205 -0.116306506 -0.18658257 -0.08561816
0000f0 75 9d 7b be 82 6f 8a bd 91 c9 a6 3d af 2b 36 3e
       -0.24571784 -0.0675955 0.081439145 0.17790101
000100 88 3f a7 3d 82 53 4f be 39 33 de bc 74 9f b6 bd
       0.081664145 -0.202467 -0.027124034 -0.08917132
000110 48 e3 28 be 73 80 4b 3e 3f cb 90 bd 2a fc 3d 3e
       -0.16492951 0.19873218 -0.07070016 0.18553224
000120 d1 b6 06 be 7a a6 3b 3e 68 82 3c be 04 ef c1 3d
       -0.13155676 0.18325225 -0.18409121 0.09469417
000130 c1 c2 0f 3e fc 6c 04 3e 05 39 12 3e 51 f3 cc bd
       0.14039136 0.12932199 0.14279564 -0.100073464
000140 3c 29 32 bd a4 83 b1 bb 5f ab 95 bc 53 09 52 bd
       -0.043496355 -0.005417304 -0.018270193 -0.051278424
000150 fd 2f 9d 3d d5 30 50 be 5c a3 a7 bd 67 d3 35 3e
       0.07675169 -0.20331128 -0.08185455 0.17756425
000160 80 a2 07 3e c1 2c ce bd fb b1 36 be fa 4b 28 3e
       0.13245583 -0.1006713 -0.17841332 0.16435233
000170 e5 e6 f1 3d 31 d8 37 be b3 44 e4 3d 5a 53 d0 3d
       0.11811618 -0.17953564 0.11145916 0.10172148
000180 44 cf 53 3d 05 5a 1b be 2f 50 00 3e d0 a5 78 bc
       0.051711336 -0.15171058 0.12530588 -0.0151762515
000190 ac ec 0a 3e 13 3a 81 bd c0 8d b5 bd bc 74 1f be
       0.13566846 -0.06309905 -0.08864927 -0.15571874
0001a0 d4 7d 86 bd 21 05 0d 3c 4f aa 5a 3d f8 ba c9 bc
       -0.065669686 0.00860718 0.053385075 -0.024625286
0001b0 d5 59 42 bd e9 78 0e 3e 1c 38 d2 3d 9b 7d ac bd
       -0.04744895 0.13913311 0.10264608 -0.08422395
0001c0 8d 18 1f 3e 7d d3 eb bd 63 ae 8e 3d 35 5c 0d 3b
       0.15536709 -0.115149476 0.069668554 0.0021569852
0001d0 e4 6c cb bd 53 ac 44 be 08 a3 0e 3e d2 26 67 bd
       -0.099328786 -0.19206361 0.13929379 -0.056433506
0001e0 f6 1c 16 3e de 5e 8d 3d 84 8b a5 3d a4 87 d3 3d
       0.14659485 0.0690286 0.08083251 0.10328606
0001f0 01 8e 99 bd 06 67 1c be 74 8f cf 3d c1 50 07 3e
       -0.07497788 -0.15273675 0.101347834 0.13214399
000200 46 2c 42 be 8d 05 3f 3c 1a 83 99 3d 8b 8c c9 bd
       -0.18962201 0.011659038 0.07495709 -0.098412596
000210 a0 8d 47 3e ca e7 b4 bc 3c 14 41 be 02 16 41 bc
       0.1948762 -0.022083182 -0.18855375 -0.011785032
000220 db 83 d7 bc 1e 77 dd bb 76 85 11 3e 9f 66 aa 3d
       -0.02630799 -0.0067585846 0.14211068 0.08320355
000230 a9 da 15 3c 0d 7f 93 3d e5 90 07 3e 64 a2 99 3d
       0.009146371 0.072019674 0.13238867 0.07501677
000240 58 4d 95 3d 52 64 f6 3d 28 21 3c 3e e0 83 45 be
       0.07290143 0.12030853 0.18372023 -0.19288588
000250 1b 96 1e 3e 04 89 18 bd 34 3f 08 3e bb c0 8b bd
       0.15486948 -0.037240043 0.1330536 -0.0682387
000260 bc c4 12 be a8 e1 0b 3e e3 71 6b bc 8c 74 87 bd
       -0.1433286 0.136603 -0.014370414 -0.066140264
000270 7d dd 5e be fd df 37 3e d8 a5 b6 bd a8 dc ae bc
       -0.21764179 0.17956538 -0.08918351 -0.021345451
000280 62 eb 9d bc c9 22 11 3e 38 41 a4 3d 94 25 b7 3d
       -0.019277278 0.14173426 0.08020252 0.08942714
000290 8c a9 9f 3d 6d 6f 31 3d 8c 4b ef 3d a7 ea 8e 3d
       0.077960104 0.043319155 0.11684331 0.0697835
0002a0 ac 65 b0 3d 2f 13 37 be f2 58 f1 bd 8e 29 83 3d
       0.08613142 -0.17878412 -0.11784543 0.0640441
0002b0 ca f7 86 3d 12 4a 2d 3e 50 13 ff bc f4 c2 72 bd
       0.06590231 0.16922787 -0.031137139 -0.059267953
0002c0 95 bb e2 3c b9 21 7e 3d fb 84 d8 bc 43 8d 95 3d
       0.027677337 0.06204388 -0.026430598 0.07302334
0002d0 8d 04 3d bd 34 ad 7a 3d 4f de 45 3e 56 5d 75 bc
       -0.046146918 0.061200336 0.19323085 -0.014975866
0002e0 13 c4 e4 bc fc 72 ff 3d ba 2a f0 bd 32 4e f6 3c
       -0.027925527 0.124731034 -0.117268994 0.030066583
0002f0 cb 2b 90 bd dd 62 66 bd 17 f7 8d 3d ba b4 f8 bd
       -0.07039603 -0.056246627 0.06931894 -0.12143846
000300 84 b0 8c 3d aa 74 8c 3d b9 dc c2 bd 39 a0 ac 3d
       0.06869605 0.068581894 -0.09514756 0.084289975
000310 76 57 aa bd 9d 03 90 bd be 39 2b 3e d6 d0 b6 bd
       -0.08317463 -0.07031939 0.16721246 -0.08926551
000320 be d7 f9 bd 4f c3 a4 bd 4e 02 23 be fc 1c 7e 3d
       -0.12199353 -0.08045065 -0.15918848 0.06203936
000330 8b e3 10 be cd 90 19 3e c4 fc be 3d 6c 4d 1a be
       -0.14149301 0.14996643 0.09325555 -0.15068597
000340 48 2a 18 3e 2a 50 cc bc b5 aa b6 3d e4 47 05 3e
       0.14859879 -0.024940569 0.089192785 0.13015705
000350 4d f2 30 3d db 0d 3b be d6 85 04 3d 5a 2d 5c be
       0.043199826 -0.18267004 0.0323542 -0.21501675
000360 e5 49 33 be d9 e8 a9 3d 38 33 0f 3e d1 20 30 bd
       -0.17508657 0.08296365 0.13984382 -0.043000046
000370 e4 86 3a 3e bb a2 80 bd 3f 4f 39 bc ab d2 ad 39
       0.18215519 -0.062810384 -0.011310398 0.0003315409
000380 fb 88 7f 3d a6 34 c3 bd 7d 4c 9d bd 04 ed e4 3d
       0.062386494 -0.09531526 -0.076806046 0.1117802
000390 19 2d c5 3d e6 7d 26 be 09 eb 1b 3e 39 c7 8d 3d
       0.09627742 -0.16258964 0.15226378 0.06922764
0003a0 7f 65 e6 bd 5d b1 4b be 5d a3 de bd 1a 9e c3 bd
       -0.112498276 -0.19891877 -0.10871003 -0.0955164
0003b0 09 69 30 3e 6b bf 1b 3e ad 00 49 3e 3b 2c 97 bd
       0.17227568 0.15209739 0.19629164 -0.07381483
0003c0 15 9e 13 be 6f b7 ff bd 84 da 04 be 04 69 49 be
       -0.14415772 -0.12486159 -0.12973982 -0.19668967
0003d0 8c 7d 05 be 34 a0 f0 bd b2 8d 9b bd 52 ea 30 3e
       -0.13036174 -0.11749306 -0.075953856 0.17276886
0003e0 e2 ea be bd 85 ef 1d 3e 7c a8 29 be 78 f3 3f bd
       -0.09322144 0.154234 -0.16568178 -0.04686305
0003f0 ed 5d fe bc 34 30 df bd 4e 80 24 3e d3 84 ac 3d
       -0.031050647 -0.10897866 0.1606457 0.08423772

fc2.bias f4 [10]
000000 e4 fb 8a bd fd d0 ec 3d 9e 48 35 bd a6 c8 c6 bd
       -0.067863256 0.11563299 -0.044258706 -0.097062394
000010 3b 21 82 3b 02 92 af bd 48 ed c7 bd cf 70 84 bd
       0.0039712465 -0.08572771 -0.09762055 -0.06466829
000020 ee 6b 8c bd 94 8e e5 3d
       -0.068565235 0.11208835
